hand-gesture-recognition-mediapipe/model/keypoint_classifier/keypoint_classifier.tflite (tflite, 6800 bytes, 6 tensors)

sequential_14/dense_44/BiasAdd/ReadVariableOp f4 [8]
-0.14171141 0.014321345 0.55053353 0.29579458 -0.18021801 -0.52498597 0.15036948 -0.49667877
00000000: cc1c 11be 13a4 6a3c c4ef 0c3f 6372 973e
00000010: 128b 38be 7b65 06bf 75fa 193e ae4c febe

sequential_14/dense_43/BiasAdd/ReadVariableOp f4 [10]
0.7205001 1.1709542 0.19898893 0.8411272 0.36415565 0.46679905 0.6806345 0.4146074
-0.19796151 0.029363997
00000000: b272 383f d4e1 953f c1c3 4b3e 1d54 573f
00000010: 9c72 ba3e 4900 ef3e 103e 2e3f 6c47 d43e
00000020: 6cb6 4abe c48c f03c

sequential_14/dense_42/BiasAdd/ReadVariableOp f4 [20]
-0.39839706 0.49112192 -0.6861652 -0.31827906 -1.0389221 -1.0925577 0.24572557 -0.07151454
-0.8280085 0.49469808 -0.425033 0.5807857 -0.4996967 -0.9896725 -0.84922594 -0.3589093
-0.53996193 -0.8062581 -0.40031186 -0.39097357
00000000: b3fa cbbe 5574 fb3e 86a8 2fbf 79f5 a2be
00000010: 66fb 84bf eed8 8bbf 7c9f 7b3e 3776 92bd
00000020: 5df8 53bf 1149 fd3e ed9d d9be 5fae 143f
00000030: 3fd8 ffbe 2d5b 7dbf df66 59bf f6c2 b7be
00000040: f23a 0abf ee66 4ebf adf5 ccbe b02d c8be

sequential_14/dense_42/MatMul f4 [20, 42]
0.03493473 0.1401051 0.21041149 0.10162345 -0.04605054 -0.04130749 -0.32900774 -0.044492844
-0.7482321 -0.0048331516 -0.025298325 0.25010493 -0.06037581 0.1323634 0.033469703 -0.024863087
0.069820575 -0.15093656 -0.09500086 0.28926262 -0.057040345 0.08147505 0.15429567 0.020621851
0.3656689 -0.033131894 -0.17326504 0.2874008 0.043390978 0.063296415 0.41213286 -0.15790664
0.64970154 -0.39245605 -0.17073826 0.31493372 -0.03248567 0.0656513 0.27367514 -0.0481362
0.47711232 -0.091423325 0.2657115 -0.029773355 0.43345034 0.5688923 0.23202097 0.46159598
0.23217186 0.2845367 0.23652516 0.26374558 -0.7123484 -0.021710694 -0.2578731 -0.13167337
-0.081616685 -0.3347989 -0.1194952 -0.3308571 -0.8031163 -0.16170755 -0.052842468 0.07216487
0.26769784 0.110028945 0.34380314 0.01398597 -0.8205742 0.010132366 -0.035567492 0.05206125
0.18876512 0.10761074 0.28191954 0.07387588 -0.31450093 0.07355371 -0.083169416 0.123514846
-0.048715286 0.16695021 0.15425754 0.10665905 0.07531491 0.106145024 -0.1614618 0.35853574
0.07594884 0.23320471 -0.021333558 0.16127303 -0.0046467595 0.060828496 -0.04468755 0.06197805
-0.0007959526 0.08700888 0.07900544 0.14881723 0.08718769 0.0988076 -0.059727985 -0.03142466
0.058122665 -0.0056137396 -0.23502323 -0.29342434 -0.8076718 -0.31831053 0.080537006 0.060215432
0.12953456 -0.11774536 -0.12503922 -0.364682 -0.9201802 -0.80061567 0.08983102 0.094917804
0.13457155 0.016818985 0.047358707 -0.13499147 -0.1498614 0.05252305 0.2480259 -0.20692022
-0.0037651889 0.64341706 0.009540099 0.34639257 0.008509262 0.2451193 -0.034743585 0.18145585
0.008495714 0.12351208 0.038339328 0.09266667 0.021533985 0.083350725 0.046906475 -1.5693916
-0.007966342 0.10334993 -0.035305824 0.09344614 -0.059665676 0.087380424 -0.056769013 0.02615398
0.020287478 0.10308251 -0.06675482 0.0834858 -0.040899005 0.058897078 0.0045568505 -0.031185951
0.12137267 0.13921191 -0.04819746 0.10022116 -0.057710696 0.029782183 0.009750515 -0.056397937
-0.06582475 0.19520992 -0.11153102 -0.84269696 -0.060823027 -0.47072548 0.07571977 -0.5478123
0.1943642 -0.6035814 -0.1559323 -0.09963591 -0.0076162936 -0.0195829 -0.00484313 0.0924664
-0.06388471 0.12104829 0.0079229865 -0.05490723 0.10286156 -0.043287154 0.4374845 -0.05026221
0.74542904 -0.15343304 -0.038850773 -0.04377253 0.010970707 -0.03847991 0.3607541 -0.040352046
0.3701726 -0.17837046 0.009370907 -0.027726589 -0.06952149 0.00095122465 -0.20773561 -0.008749218
-0.43543223 -0.032415923 -0.09689486 0.1973579 -0.5815076 0.056792747 -0.30995148 -0.31789353
-0.26452163 -0.39956626 -0.2925997 -0.20379204 -0.3910416 -0.12011335 -0.096838534 -0.12130611
0.12145673 -0.0069229207 0.1763088 -0.010096002 -0.39513952 0.00999713 -0.12912239 -0.092771254
0.10240695 0.0074282777 0.12405685 0.060238536 -0.31437987 -0.022675773 -0.1457407 -0.12438083
0.074710876 0.044776663 0.112485975 0.099970356 -0.04110776 -0.047386877 -0.13121526 -0.15929498
-0.013093335 -0.0063564437 0.016013496 0.061267607 0.11560127 -0.034127623 0.533225 0.58296317
00000000: b817 0f3d b677 0f3e 1c76 573e f51f d03d
00000010: 7e9f 3cbd 0b32 29bd b473 a8be 213e 36bd
00000020: 248c 3fbf 6a5f 9ebb 6f3e cfbc c10d 803e
00000030: a04c 77bd 458a 073e 8717 093d acad cbbc
00000040: 17fe 8e3d 1d8f 1abe d08f c2bd 3b1a 943e
00000050: 23a3 69bd 64dc a63d afff 1d3e 28ef a83c
00000060: f438 bb3e 4fb5 07bd 646c 31be 3326 933e
00000070: bdba 313d 8da1 813d 1403 d33e 47b2 21be
00000080: d752 263f 00f0 c8be 03d6 2ebe fe3e a13e
00000090: b20f 05bd 3074 863d 261f 8c3e 772a 45bd
000000a0: 1148 f43e 273c bbbd 560b 883e 40e7 f3bc
000000b0: 34ed dd3e eda2 113f e896 6d3e 4f56 ec3e
000000c0: 76be 6d3e cbae 913e a733 723e a909 873e
000000d0: 775c 36bf a0da b1bc f107 84be 62d5 06be
000000e0: a626 a7bd c36a abbe e6b9 f4bd 1a66 a9be
000000f0: 0899 4dbf aa96 25be 5871 58bd 2dcb 933d
00000100: b10f 893e db56 e13d f706 b03e 6925 653c
00000110: 2711 52bf 3902 263c 38af 11bd 2d3e 553d
00000120: a54b 413e 0563 dc3d c257 903e 3d4c 973d
00000130: 4406 a1be 54a3 963d ba54 aabd 5af5 fc3d
00000140: ae89 47bd fff4 2a3e b0f5 1d3e 0f70 da3d
00000150: b43e 9a3d 9062 d93d 3e56 25be ff91 b73e
00000160: 118b 9b3d 37cd 6e3e b7c3 aebc c224 253e
00000170: d843 98bb 4d27 793d 4b0a 37bd b2dc 7d3d
00000180: 7aa7 50ba b631 b23d 9bcd a13d 8b63 183e
00000190: 768f b23d a45b ca3d 55a5 74bd 25b7 00bd
000001a0: 0812 6e3d 76f3 b7bb eea9 70be b73b 96be
000001b0: 94c3 4ebf 99f9 a2be 96f0 a43d 75a4 763d
000001c0: b5a4 043e 7b24 f1bd 480a 00be 99b7 babe
000001d0: ee90 6bbf 26f5 4cbf 53f9 b73d 4464 c23d
000001e0: 20cd 093e f8c7 893c 34fb 413d 343b 0abe
000001f0: 4475 19be 6922 573d 80fa 7d3e e5e2 53be
00000200: 63c1 76bb fbb6 243f 134e 1c3c 5e5a b13e
00000210: 6f6a 0b3c 8e00 7b3e 4a4f 0ebd 90cf 393e
00000220: 9b31 0b3c e7f3 fc3d b309 1d3d 06c8 bd3d
00000230: 0a68 b03c c9b3 aa3d 0121 403d d3e1 c8bf
00000240: 4385 02bc 21a9 d33d d79c 10bd b160 bf3d
00000250: ff63 74bd 82f4 b23d a086 68bd df40 d63c
00000260: ed31 a63c ec1c d33d c0b6 88bd 9afa aa3d
00000270: b785 27bd 103e 713d a251 953b ae79 ffbc
00000280: 3c92 f83d 918d 0e3e b36a 45bd c040 cd3d
00000290: 0d62 6cbd c4f9 f33c a0c0 1f3c 8601 67bd
000002a0: 20cf 86bd 1ce5 473e 606a e4bd fdba 57bf
000002b0: 9121 79bd ee02 f1be f712 9b3d 6d3d 0cbf
000002c0: 6907 473e 5084 1abf b8ac 1fbe e90d ccbd
000002d0: 1a92 f9bb 516c a0bc 1eb3 9ebb 065f bd3d
000002e0: fdd5 82bd 2ae8 f73d 6acf 013c 67e6 60bd
000002f0: 15a9 d23d df4d 31bd f8fd df3e bfdf 4dbd
00000300: 70d4 3e3f 8d1d 1dbe fd21 1fbd d34a 33bd
00000310: 7bbe 333c 1c9d 1dbd c3b4 b83e 3048 25bd
00000320: 4387 bd3e bfa6 36be 6f88 193c df22 e3bc
00000330: 4861 8ebd 9b5b 793a a5b8 54be e158 0fbc
00000340: f9f0 debe 8fc6 04bd d070 c6bd 3018 4a3e
00000350: afdd 14bf 839f 683d f6b1 9ebe f1c2 a2be
00000360: 616f 87be f393 ccbe a1cf 95be dcae 50be
00000370: 9b36 c8be fdfd f5bd 4853 c6bd 566f f8bd
00000380: 4ebe f83d abd9 e2bb 4b8a 343e b469 25bc
00000390: ba4f cabe 01cb 233c a938 04be dbfe bdbd
000003a0: bcba d13d e968 f33b 8511 fe3d afbc 763d
000003b0: 66f6 a0be 8bc2 b9bc 0d3d 15be 60bb febd
000003c0: 0402 993d bc67 373d 0c5f e63d 42bd cc3d
000003d0: 9c60 28bd be18 42bd 4b5d 06be 391e 23be
000003e0: 6d85 56bc b749 d0bb bc2e 833c bef3 7a3d
000003f0: 5cc0 ec3d 68c9 0bbd 6f81 083f 133d 153f

sequential_14/dense_43/MatMul f4 [10, 20]
0.11786455 -0.30487308 0.8477941 0.017313072 0.45224836 -0.97031385 -0.715044 0.30005142
-0.41243258 -0.11579177 0.8837499 -0.2227366 0.055360798 0.39168125 -0.11522062 0.9346428
-1.1579432 0.003274303 0.4321164 0.33273944 -0.2944861 0.3246159 -0.12070962 0.51600283
-0.14935979 0.45041984 -0.20529854 -0.1803703 0.27364594 -0.02768484 0.0028613661 0.27664408
-0.5332741 0.46381682 0.09722898 -0.32352898 -0.5055756 0.57303905 -0.5947909 0.117032185
0.3048806 0.7491895 0.02869719 1.2959057 1.0340471 0.3985043 0.8800507 0.5559392
0.8938163 0.96399677 0.025270786 0.7036307 0.5716806 -0.30080363 0.6838485 0.018830327
0.45770586 -0.12052333 0.8585329 -0.02252628 -0.15337558 0.6952362 -0.03985508 1.4210099
0.024459274 -0.24392289 0.399747 0.45836866 0.3098351 0.8856964 0.19383088 0.005953031
-0.06414011 0.13126701 0.42110056 0.3140531 -0.104465015 -0.41892552 -0.04862326 -0.12875913
0.36367607 0.32241958 -0.12635143 -0.6274245 0.51235133 0.43257925 0.5467691 0.3296197
0.49320218 0.3469627 -0.033211395 0.5126622 0.48769572 1.0552266 0.5471076 0.38118172
0.34159425 0.16990167 0.12823759 -0.10728143 0.12557146 -0.56838053 -0.034560777 -0.121458195
0.5130673 1.0170088 0.0044182497 -0.06857647 0.9392039 0.27820283 -0.0053196596 -0.027535746
0.5719657 -0.5190012 0.6058534 -0.022106923 0.16200222 0.9736898 0.050956696 0.29433158
0.2506097 -0.1905268 -1.2946285 -0.27962694 -0.1936563 -0.20854987 0.20107155 0.30241615
-0.10362367 -0.045267615 -1.0869614 0.71667886 -0.5406025 -0.21479543 -0.22304977 0.049407672
-0.47047403 -0.31084448 -0.84864485 -1.3015752 0.4977049 -0.10787987 0.2951882 0.53155553
0.011633881 0.07656216 -0.15726404 -1.4023408 -0.27079597 -0.41357243 0.19019248 -0.7353682
0.7312399 -0.028671183 -0.3141873 0.15951273 0.33645323 0.50755584 -0.097810745 1.114907
1.1535289 0.022992224 0.30877963 -0.009991626 0.49218875 0.27469364 0.5060253 0.44457626
0.18614325 0.2597739 0.348692 0.3665673 0.68926334 -0.35763913 -0.09773126 -0.3184711
0.929594 0.48432508 1.1204941 -0.9667823 -0.14543062 0.21070023 0.9852662 0.023681838
-0.84391534 0.5389281 -0.208718 0.19019692 0.30654773 -0.049556814 0.63522804 0.1096521
0.43630317 0.2893938 0.61511916 0.38291442 0.48522523 -0.2502898 -0.399545 0.74450487
00000000: f862 f13d 5318 9cbe 0909 593f 25d4 8d3c
00000010: 198d e73e 7d66 78bf 200d 37bf 57a0 993e
00000020: 5d2a d3be 3c24 edbd 6f3d 623f 1015 64be
00000030: 01c2 623d 728a c83e caf8 ebbd c044 6f3f
00000040: 7c37 94bf b095 563b 5c3e dd3e d35c aa3e
00000050: e2c6 96be 0e34 a63e 9b36 f7bd c318 043f
00000060: c6f1 18be 6e9d e63e c839 52be feb2 38be
00000070: 521b 8c3e 51cb e2bc c285 3b3b 4ba4 8d3e
00000080: a784 08bf 6679 ed3e fd1f c73d 97a5 a5be
00000090: 676d 01bf b0b2 123f 3744 18bf 92ae ef3d
000000a0: 4f19 9c3e e2ca 3f3f 5f16 eb3c 3de0 a53f
000000b0: a85b 843f c108 cc3e 014b 613f 0852 0e3f
000000c0: 25d1 643f 7ec8 763f ae04 cf3c 2421 343f
000000d0: a959 123f ef02 9abe b210 2f3f 0f42 9a3c
000000e0: 6c58 ea3e f0d4 f6bd d0c8 5b3f 0889 b8bc
000000f0: 7d0e 1dbe 00fb 313f 153f 23bd a7e3 b53f
00000100: d15e c83c ecc6 79be a4ab cc3e 4caf ea3e
00000110: b5a2 9e3e 00bd 623f 9a7b 463e a511 c33b
00000120: e45b 83bd dc6a 063e 7e9a d73e 91cb a03e
00000130: c1f1 d5bd 687d d6be 2f29 47bd 6fd9 03be
00000140: c033 ba3e 2e14 a53e 4562 01be e49e 20bf
00000150: 7529 033f 077b dd3e 0ff9 0b3f eac3 a83e
00000160: ff84 fc3e 18a5 b13e ac08 08bd d43d 033f
00000170: 41b3 f93e aa11 873f 3e0f 0c3f 402a c33e
00000180: 71e5 ae3e b4fa 2d3e b750 033e 5eb6 dbbd
00000190: ce95 003e 6381 11bf 9a8f 0dbd 13bf f8bd
000001a0: 6158 033f 582d 823f f7c6 903b d271 8cbd
000001b0: ab6f 703f 9a70 8e3e 8a50 aebb a592 e1bc
000001c0: 586c 123f 43dd 04bf 3519 1b3f 9419 b5bc
000001d0: e9e3 253e bc43 793f f8b7 503d a1b2 963e
000001e0: ea4f 803e 7519 43be 63b6 a5bf 432b 8fbe
000001f0: d64d 46be 198e 55be b3e5 4d3e 4ad6 9a3e
00000200: a638 d4bd 896a 39bd 8d21 8bbf 4478 373f
00000210: ed64 0abf 55f3 5bbe 2967 64be b35f 4a3d
00000220: f9e1 f0be 0227 9fbe ca40 59bf 049a a6bf
00000230: 2dd3 fe3e 1ff0 dcbd e822 973e 0614 083f
00000240: 099c 3e3c 9fcc 9c3d d309 21be e77f b3bf
00000250: c5a5 8abe c4bf d3be d1c1 423e 1741 3cbf
00000260: 8a32 3b3f d4df eabc 28dd a0be 4e57 233e
00000270: 9943 ac3e 2eef 013f 0051 c8bd 46b5 8e3f
00000280: d6a6 933f 305a bc3c 5d18 9e3e ebb3 23bc
00000290: 2a00 fc3e a5a4 8c3e e08a 013f 809f e33e
000002a0: 569c 3e3e 1601 853e c287 b23e b6ae bb3e
000002b0: 9073 303f 7a1c b7be 5427 c8bd a50e a3be
000002c0: dff9 6d3f 75f9 f73e 5a6c 8f3f 0b7f 77bf
000002d0: c4eb 14be cdc1 573e 683a 7c3f 6a00 c23c
000002e0: d60a 58bf 31f7 093f 2cba 55be fbc2 423e
000002f0: d3f3 9c3e 16fc 4abd 4e9e 223f 4891 e03d
00000300: 2163 df3e 6d2b 943e 7378 1d3f 5c0d c43e
00000310: 716f f83e fc25 80be 2a91 ccbe df97 3e3f

sequential_14/dense_44/MatMul f4 [8, 10]
0.10656473 -0.85382074 0.63978064 0.20803706 0.19952105 -0.86115116 0.37127262 0.8628925
0.578912 0.16063458 -0.4852628 0.24691522 0.20666584 0.006171657 1.0160567 0.96887
-0.584313 -1.197827 -0.19709612 0.89825743 -0.9638482 0.66056997 0.4387251 0.7293152
-0.034832925 -0.07342239 0.9044931 -0.9861373 -1.2078048 -1.1962372 0.51219004 0.60574657
-2.423605 -1.1457622 -0.63716 -0.6489446 0.4956716 0.34931338 0.8102694 0.31322393
-2.0526366 0.8876454 0.27329156 0.01062774 -0.6236828 0.27529034 -1.134394 0.7272196
-0.4071123 -0.08920181 0.017593976 -1.4615467 0.29424453 -1.2919049 -0.23206288 0.37660593
-0.38584867 1.0242858 0.8837531 -0.68806714 0.51067376 0.061825357 -0.33752748 0.6179015
-1.0069907 -3.0686638 -1.0036427 -0.09389405 -1.3839097 0.3031015 -0.101116836 -2.9326196
-0.8277861 -0.8117435 -1.0760933 -0.8572737 -0.17896962 -0.9308083 -0.5957373 -1.1403205
00000000: 9c3e da3d ff93 5abf aac8 233f ab07 553e
00000010: 3f4f 4c3e 6774 5cbf 7217 be3e 86e6 5c3f
00000020: 9433 143f 647d 243e 5e74 f8be 58d7 7c3e
00000030: 36a0 533e 9c3b ca3b 250e 823f dd07 783f
00000040: 8995 15bf 6552 99bf 91d3 49be 33f4 653f
00000050: c1be 76bf 1d1b 293f 94a0 e03e 67b4 3a3f
00000060: f8ac 0ebd 7a5e 96bd dc8c 673f 7e73 7cbf
00000070: 5999 9abf 4d1e 99bf e31e 033f 3512 1b3f
00000080: 581c 1bc0 56a8 92bf eb1c 23bf 3c21 26bf
00000090: abc8 fd3e 34d9 b23e d16d 4f3f e35e a03e
000000a0: 665e 03c0 bb3c 633f dfec 8b3e f91f 2e3c
000000b0: ada9 1fbf dbf2 8c3e d333 91bf 102b 3a3f
000000c0: 0671 d0be 70af b6bd 3e21 903c f613 bbbf
000000d0: 38a7 963e 245d a5bf e4a1 6dbe 7ed2 c03e
000000e0: f58d c5be cc1b 833f a53d 623f 2b25 30bf
000000f0: 84bb 023f 963c 7d3d 67d0 acbe cb2e 1e3f
00000100: 12e5 80bf fd64 44c0 5d77 80bf 864b c0bd
00000110: f423 b1bf 1f30 9b3e 5816 cfbd 0ab0 3bc0
00000120: cae9 53bf 6cce 4fbf 6dbd 89bf 4a76 5bbf
00000130: d043 37be 7449 6ebf 3d82 18bf 06f6 91bf
