hand-gesture-recognition-mediapipe/model/keypoint_classifier/keypoint_classifier.tflite (tflite, 6588 bytes, 6 tensors)

sequential/dense/BiasAdd/ReadVariableOp f4 [20]
00000000: 734a 16bf 4fe0 ebbe dd3d 18bf 7aaf e3be
00000010: 8d5f 21bf 9a5e 823e 6bf1 bbbe 4836 dbbe
00000020: 4d69 0ebf 15e7 19bf bd66 04bf 6598 35bf
00000030: f67b 48bf ceb8 cabe b8ba 38bf d4c4 a2be
00000040: aac5 b53c 6ef2 4abf 9299 2dbf 6f4b 2cbf
-0.5870735 -0.4606957 -0.59469396 -0.44469815 -0.63036424 0.254628 -0.36707625 -0.4281485
-0.55629426 -0.6011823 -0.51719266 -0.7093566 -0.7831415 -0.3959412 -0.7215991 -0.31790793
0.02218898 -0.7927617 -0.67812455 -0.673026

sequential/dense_2/BiasAdd/ReadVariableOp f4 [5]
00000000: 37af a9be 2657 03bf 8145 553f d9b2 323e
00000010: 4ded 14be
-0.3314149 -0.5130485 0.8330918 0.17451037 -0.14543648

sequential/dense_1/BiasAdd/ReadVariableOp f4 [10]
00000000: 4bbf 74bd 76f8 503f 8938 2e3f b084 853e
00000010: b1ad 223e 7c95 ce3d 400c 143d 4845 14be
00000020: 5757 bd3e a11c c73e
-0.059752744 0.8162912 0.68055016 0.26077795 0.1588657 0.10087106 0.036144495 -0.14479554
0.36980698 0.3888903

sequential/dense/MatMul f4 [20, 42]
00000000: 84db bc3d 5c79 94bd c063 ff3e 8657 0a3f
00000010: 4db5 a33e 0e63 323e 138f e43e a16b ff3d
00000020: e708 303f 647b 083e ab39 4cbd 962c 983c
00000030: a117 5cba 0dcf 1a3d 607e b4bc 345c 553c
00000040: f30a a0bc b7da 4abd dfe5 093c eeb7 9dbd
00000050: 979e 4cbd eb29 993c 3fb2 d4bc ec45 ddbd
00000060: eee8 113e 51e4 aabe 3d29 883d dfe9 b7bd
00000070: 8a80 75be 78eb 7ebb edc8 bdbe c363 4bbd
00000080: b8c6 cebe 9d24 54be 5dce 8c3e a82d 233d
00000090: 9642 5abe 5b9a 183d 27fb 11bf dc88 9a3d
000000a0: bcbd 2bbf 83ed 4abd 0dc7 4ebe a084 17bd
000000b0: c478 2bbe 9aa2 903e 5908 a3bc 8f98 913d
000000c0: aa5e aebd 33c9 803e da5b 26bd 56c8 2a3e
000000d0: 0a1e 623d cc6f 093d 83c8 c8ba a379 fd3c
000000e0: 91e7 733c b3df bf3d 8094 da3c a31c df3d
000000f0: 0ff4 353e 6198 143c 4213 813b e1e2 7d3d
00000100: 1794 ccbd ca7b febd 163b e9bd d8da aebe
00000110: feb8 2e3e 93c9 723d 893c 123e fb80 813d
00000120: 4a82 a3bd 3704 89be d9e6 62be 607a acbe
00000130: 0ee6 293d a835 193e 4985 b9bd 33be 6a3d
00000140: 12ef 4ebd 66f7 90be 6d71 68be 5b21 a8bf
00000150: cef3 9cbd 80a2 5dbb 7ed5 113f f565 33bf
00000160: 230d 343f 641e 36bf 6fe6 223f f983 26bf
00000170: 3fab f93e bbcb 90be 69ad e53e 5635 d6be
00000180: 9602 2d3e d21a 10be f046 a5be 17fc 533e
00000190: c2b1 06bf 8b54 ac3e 507a b33e 44a1 78be
000001a0: b83a cf3d 6a60 00be 8609 a23a 528f 9ebc
000001b0: 2009 283d 83c6 1ebd 4936 133f e5cc 60be
000001c0: 2567 4e3e e0d0 60be 9ede 89bc e78b af3d
000001d0: 1190 90bc a1ca 533d 4b21 c13e 0780 a5be
000001e0: eff8 603e 6969 773b 7727 51bd 2f14 4a3e
000001f0: 3ee7 45be af93 6f3e fbaa 94be 28eb 9dbe
00000200: 7b0f b13e f0c4 0f3e dde9 7fbd b7f1 76bd
00000210: 2eb9 33be cbf4 18be 8ce3 97be 7bbc afbd
00000220: fa0a 053c 7837 293e b4c7 193d 1983 ae3d
00000230: c0ea 0bbc 4379 bf3c e07e 21bd db66 c5ba
00000240: d873 843c 02dc 4e3e 59d2 0dbc a3ae 14bd
00000250: f115 cd3e 2e83 d3bd 235b 013f 4000 9dbe
00000260: aca0 ddbc 160f 463e 7d56 5fbd 15a6 c33b
00000270: e179 013f d8c9 62be 3eb9 5a3f fff4 9abe
00000280: a15c f2bd a8f5 423e c4f5 d1bd 5867 5d3c
00000290: 65ca f7ba 34da 73b9 e100 533e 7987 22bd
000002a0: e002 893e 603a ecbc 59e5 993e c805 e2be
000002b0: 7dcc 8ebc 25b1 38bf b2ed 0bbe cace 32bf
000002c0: 2f52 40be cdd9 15bf e128 f3bd 88bd 18be
000002d0: 2e74 dfbd 6b88 1dbe 75b0 e93d ebea f73d
000002e0: 37b9 e33d 1379 653e 4b4e 92be 5bb7 4bbe
000002f0: 6dd0 19bd 56a6 58be 5340 a93e 0653 70bd
00000300: fb50 c93e 4741 1abd 8ace 72be ef27 11bd
00000310: bcfc ecbd efd8 4ebe bf8b 54bc 7bd3 ad3c
00000320: 242e 903e 7dfa 0d3d 1e89 553e db24 0d3e
00000330: dcef bc3d 9b9e 0c3e 0d27 04be 28a7 843e
00000340: 6f48 acbc d02e 7e3e 5023 993c 2c6c 3e3e
00000350: c501 debe 1ab1 2e3e 3442 80be 617b 0a3e
00000360: b097 45be a386 ef3d b402 14be 007a 843b
00000370: 1f66 12be a0d3 2b3c 5eac 6bbe 83b3 06bd
00000380: eae6 1bbd 9995 80bd 8a2d bd3e 79fb d9be
00000390: c34e 1dbe 5ffb b13d bb80 04be 3186 5fbd
000003a0: 6d6d 2e3e 148c 0d3e 9d4d eb3e 7ead 7f3d
000003b0: c409 dfbd 7492 083d 4224 a3bd d3a5 e13d
000003c0: 16a4 673e 9632 4c3d 54a1 503f a44f 1bbe
000003d0: 2412 75be 6910 533e 71b9 f1bd dfeb a63e
000003e0: b307 cb3e ce3d f43e 574d db3e f806 d33e
000003f0: 9889 4cbd d001 ed3d 43c4 1fbc 7e17 1a3f
0.09221557 -0.0724971 0.4988079 0.540398 0.3197426 0.17420599 0.44640407 0.124717005
0.68763584 0.1332832 -0.049859684 0.018575948 -0.0008395855 0.037795115 -0.022032917 0.013022471
-0.019536471 -0.04952499 0.008416622 -0.077010974 -0.04995593 0.018696746 -0.0259639 -0.10804352
0.14249012 -0.33377317 0.066484906 -0.08980154 -0.23974815 -0.0038897675 -0.37067357 -0.049655687
-0.40385985 -0.20717092 0.27501193 0.039838463 -0.21314463 0.03725658 -0.57023853 0.07545635
-0.67086387 -0.049542915 -0.2019312 -0.036991715 -0.16745287 0.28249055 -0.019901441 0.07109176
-0.085141495 0.25153503 -0.04061494 0.16677985 0.05520443 0.033553883 -0.0015318546 0.03094179
0.014886753 0.09368839 0.026682138 0.10894134 0.17768882 0.009069533 0.0039390633 0.061983947
-0.099891834 -0.12425955 -0.11388223 -0.3415134 0.17062756 0.059274267 0.14280905 0.06323429
-0.07983835 -0.26761028 -0.22158374 -0.33687115 0.041479163 0.14961874 -0.09058625 0.057310294
-0.050520964 -0.2831375 -0.22699519 -1.3135179 -0.076636896 -0.0033818781 0.5696639 -0.7007745
0.70332545 -0.7114012 0.63632864 -0.65045124 0.48763463 -0.28280434 0.44858864 -0.41837567
0.16895518 -0.14072731 -0.32280684 0.20701633 -0.52614987 0.3365825 0.35054255 -0.24280268
0.101186216 -0.12536779 0.0012362457 -0.01935545 0.041024327 -0.038763534 0.5750471 -0.21953161
0.20156534 -0.2195468 -0.016829785 0.08571606 -0.017646821 0.051706914 0.37720713 -0.3232424
0.2196996 0.0037752038 -0.051063027 0.19734262 -0.19326493 0.2339618 -0.29036698 -0.30843472
0.34582123 0.1403997 -0.06247889 -0.06028911 -0.17551109 -0.14937131 -0.29665792 -0.08580872
0.008120293 0.16525066 0.037543967 0.08521099 -0.0085398555 0.023373252 -0.039427638 -0.001506056
0.01616852 0.20201114 -0.008656108 -0.03629936 0.40055802 -0.10327755 0.5052969 -0.30664253
-0.027054153 0.19341692 -0.05452584 0.0059707263 0.505766 -0.2214731 0.8543891 -0.30265042
-0.11834074 0.19039023 -0.10251954 0.013513409 -0.0018904923 -0.00023255573 0.20605804 -0.039679978
0.26760006 -0.02883643 0.3005779 -0.44145036 -0.017431492 -0.721453 -0.13664892 -0.69846785
-0.1878135 -0.5853546 -0.118730314 -0.1491605 -0.109108314 -0.1538407 0.1141061 0.12105354
0.11119311 0.22409467 -0.28575358 -0.19894163 -0.037552286 -0.21157202 0.33056888 -0.058672927
0.39319596 -0.03765991 -0.23711601 -0.035438474 -0.11571643 -0.20199941 -0.012972771 0.021219006
0.28160203 0.034662712 0.20853087 0.1378359 0.09225437 0.13732378 -0.12905522 0.2590878
-0.021030633 0.24822545 0.018693596 0.18595952 -0.43360725 0.17059746 -0.2505051 0.13523628
-0.19296145 0.11695602 -0.14454156 0.004042864 -0.14296769 0.010487467 -0.23014972 -0.03288604
-0.038062014 -0.062785335 0.36948806 -0.4257467 -0.15362076 0.08690523 -0.12939732 -0.054571334
0.1703393 0.13822967 0.45957652 0.062421314 -0.108905345 0.033342794 -0.079659 0.110179566
0.22621188 0.04985293 0.8149617 -0.15167099 -0.23932701 0.20611729 -0.11802948 0.3260183
0.39654312 0.47703403 0.42832443 0.41216254 -0.049935907 0.11572611 -0.009751382 0.60192096

sequential/dense_1/MatMul f4 [10, 20]
00000000: f5d6 033f ecab db3e 8780 923e 6408 af3d
00000010: dd0f b73e 97d2 c6bc 9d43 dc3e 107e 403f
00000020: b68d 6eba d5c2 093f 342c 0c3f 1c9b cfbc
00000030: 700f 39be 4774 3e3f a871 163e 1031 29be
00000040: d342 e53c 8c6c 613f 3580 2b3e 947a a13e
00000050: 119d 1abf 9409 d8bd 68c0 a33e 7e80 c03e
00000060: 2312 cb3e 6fd6 3e3f 1c86 083e f1e9 36bd
00000070: 2a52 343f 47e7 ecbe 7036 193f 0155 0dbf
00000080: c307 963d 4b50 593e cd33 913e 2b9d 1cbc
00000090: 7a39 5d3f 85f9 47bd d803 003f 9962 bebd
000000a0: c635 2b3e 20b8 aabe 0412 353f b091 81bd
000000b0: 40b3 fe3d 05bf 08be eccd ce3b 1a8d edbe
000000c0: 8dc5 5d3f 5504 183f 639f d3be a8c7 e83e
000000d0: 62f6 f13e 8bbd 06be 52a5 803f 7a03 78be
000000e0: 60d9 453e aef1 803e 3f96 723f c8c8 fa3e
000000f0: 09ab 753e b5da f83c 87ff 94bf fa0f 98bc
00000100: a0a4 af3e bc6b c93c 71d6 0c3f 178d f5bd
00000110: 9cbe c23e 64d7 9c3a 155f bf3c a78e 403f
00000120: a8d3 5b3f c6f1 9a3e 73d7 c23e 9360 303f
00000130: 7304 13be e47f 133f 01cc 743e 7719 383f
00000140: 8892 133f 3413 473f 2c95 773e a8af 6abf
00000150: 66ba 76be e7ed bcbe 3bed 5dbf f608 25bf
00000160: e639 34be 5aa5 363f 5754 12bf 3da2 03bf
00000170: 19b2 3d3c 96ef 8cbe 84e1 6cbe fa66 01bf
00000180: 3070 873f aa6b b9be c4e4 25bd 6dd3 3b3f
00000190: 15e5 e03e b041 633f 08c2 993e 92e6 703f
000001a0: 747d b3be 9fc4 033e 40a9 5f3f 87ab efbe
000001b0: e533 aa3c 8e21 d83e b927 4d3f 21c4 403f
000001c0: 12c5 9b3e 4c80 103f cbc8 b7be c245 823f
000001d0: 91e8 55bd f835 713f 7b96 983b 3688 cbbe
000001e0: 9977 4a3f 3406 203d d290 5a3e bc4f 37bf
000001f0: b777 9ebe 6c33 28bf 61cc 6c3e 0d39 043f
00000200: ef27 9639 a371 b8be 07ee 0dbf 782d 96bd
00000210: 82d3 0fbf a5ef a73e a0a5 ab3e 4c66 323e
00000220: 7c82 923e be06 073f 6d6c d7bd afb2 683e
00000230: 13e1 753f ac47 c0bc eb86 d13e 2d84 8e3e
00000240: 0f4b 2d3f f12d 913e 987d 9c3d b2fb f13e
00000250: d6d9 f83d 3b81 b03e 96c1 5d3f 3c27 c0bb
00000260: c499 463f f9b3 5e3f 5f40 d43e b7cb 553d
00000270: 7585 9f3e 48e0 c63d 622b 7bbd d9fa 883f
00000280: 1aac 3abe 2045 9bbf 0a27 573c 9703 383d
00000290: 49ce 953c 5f56 08bf 3a27 053f aa59 0bbf
000002a0: 804d 78be d331 f93c 880a 55bf f069 153e
000002b0: 72af b3bc ecf9 883e 4124 15be 3feb bb3e
000002c0: 092b a8be b3b0 bc3e 63df c8be 52cf d6bd
000002d0: 64e5 093f 10a2 ebbb 82ce 223e 5cff e13e
000002e0: 9f2d fe3e 3493 ff3e a210 af3d ae5d 5f3f
000002f0: a08a cebe 3357 debe 888e 7a3f adb2 dcbe
00000300: c9b0 063f 9142 a03e 393d c4bd 6fb4 b33e
00000310: 4e07 e73e 21b4 66bd 9194 f9bd 4ef0 bebe
0.51499873 0.42904603 0.28613684 0.08546522 0.3575429 -0.024270339 0.43020335 0.75192356
-0.0009100096 0.53812915 0.5475495 -0.025342517 -0.18072295 0.74396175 0.14691794 -0.16522622
0.027985966 0.88056254 0.16748126 0.31538832 -0.60395914 -0.10548702 0.31982732 0.37598032
0.39662275 0.7454595 0.13332409 -0.044656698 0.7043787 -0.462702 0.5984869 -0.5520783
0.07325699 0.21222036 0.28359833 -0.009558956 0.8641583 -0.048821945 0.50005865 -0.0929615
0.16719732 -0.333436 0.70730615 -0.06326616 0.12436533 -0.13354118 0.006311169 -0.46396714
0.86629564 0.5938161 -0.4133254 0.45464826 0.47258288 -0.13158242 1.0050452 -0.24220076
0.19321203 0.25184387 0.9476051 0.4898131 0.23991026 0.030377725 -1.1640481 -0.018562306
0.34305286 0.024587505 0.5501471 -0.119898014 0.38036048 0.0011966047 0.023360768 0.7521767
0.85869837 0.30262583 0.38055 0.6889736 -0.14357166 0.5761702 0.23905946 0.71913856
0.57645464 0.77763677 0.24177998 -0.9167428 -0.24094543 -0.36900255 -0.8669011 -0.644668
-0.17600212 0.71346056 -0.5715994 -0.5141943 0.011578106 -0.2752654 -0.23132902 -0.50547755
1.0581112 -0.36214954 -0.04050137 0.73369485 0.43924776 0.88772106 0.30030847 0.9410182
-0.3505665 0.12867974 0.8736763 -0.46810552 0.020776698 0.422131 0.80138737 0.7529927
0.3042379 0.56445765 -0.3589538 1.0177538 -0.052223746 0.94222975 0.0046566105 -0.39752358
0.7908874 0.039068416 0.21344307 -0.7160604 -0.3095071 -0.65703464 0.2312484 0.5164955
0.00028639982 -0.36024198 -0.55441326 -0.07332891 -0.5618211 0.32800022 0.335248 0.17421836
0.28615177 0.5274466 -0.105187275 0.22724412 0.9604656 -0.023471676 0.40923247 0.27835217
0.67692655 0.28355363 0.076411426 0.4726234 0.12150924 0.34473595 0.86623514 -0.005864052
0.7757838 0.86993366 0.4145536 0.05219623 0.31156507 0.09710747 -0.06132067 1.0701553
-0.18229714 -1.213047 0.013131866 0.0449253 0.018286841 -0.5325679 0.5201298 -0.5443369
-0.24248314 0.030419266 -0.83219194 0.14591193 -0.021934245 0.26753175 -0.14564611 0.36702916
-0.32845333 0.3685356 -0.3923293 -0.10488762 0.5386565 -0.00719095 0.15899089 0.44140136
0.4964418 0.49916995 0.08548094 0.8725232 -0.40340137 -0.43425903 0.97873735 -0.4310507
0.526135 0.31300786 -0.0958199 0.35098597 0.4512276 -0.056324128 -0.1218654 -0.37292713

sequential/dense_2/MatMul f4 [5, 10]
00000000: 30a4 1d3f bbb5 dc3e 49e9 78bf 7104 92be
00000010: 99c9 96be 4755 823e b7b5 473f a3cf 0b3f
00000020: 435a 013e 24da 603f 9890 e03e 1fc9 b33d
00000030: 7feb 503f 6762 3a3f a7df 27bf 8d59 f2bd
00000040: 0c4c 2ebe 18ab 4a3f dbb1 7fbf 5dcd 05be
00000050: bd68 9ebf 0e89 773f b2c1 483f f3bd ccbe
00000060: b61f 36be c6bd 9ebf e91c 31bf 5bb4 49be
00000070: 8014 2ebd a6fc cc3d 6a04 d43e 3c96 b1bf
00000080: d538 41bf 8384 c83e f0d6 9dbe b3fe 3a3f
00000090: 1bab a5be c52c bbbf 60b9 5d3f 2772 94bf
000000a0: 6281 2e3e ce73 b1be 6adc 17bd 67f4 18bf
000000b0: 62d5 b93f 07d3 50bf 7b83 0d3e fb3c aa3e
000000c0: 863a 42be 91d2 7ebf
0.61578655 0.431074 -0.97230965 -0.28519014 -0.29450682 0.25455686 0.7801165 0.54613703
0.12632088 0.87832856 0.43860316 0.08778595 0.8160934 0.728064 -0.6557564 -0.11833487
-0.17021197 0.7916732 -0.9988076 -0.13066621 -1.2375714 0.96693504 0.78420556 -0.3998867
-0.17785534 -1.2401664 -0.6918474 -0.19697706 -0.04250002 0.10009126 0.41409618 -1.3873973
-0.75477344 0.39163598 -0.30828047 0.7304489 -0.32357106 -1.4623038 0.86610985 -1.1597337
0.17041543 -0.34658664 -0.037075438 -0.5974793 1.4518244 -0.81572 0.13819687 0.3324965
-0.18967637 -0.9954005
